best.onnx (onnx, 9504 bytes, 2 tensors)

onnx::Conv_12 f4 [16, 3, 3, 3]
00000000: a360 123c 0e81 71bb 90a2 313e 3d35 eabc
00000010: 0003 03bd 7334 efbc 543e 2c3e 24aa 3abe
00000020: be21 5fbd 39a4 9b3d 9665 823d 1768 ac3c
00000030: ddfc 6cbd a7f6 053e d02b 513b ff19 993d
00000040: 69e4 f0bd 70a4 27be 2934 cc3d 8b50 0e3d
00000050: 3a15 3bbe d9ed fabd f8e7 c3bd fd8e 23be
00000060: 6ad8 193e 0f5e b93c 4717 d73d 4a53 9ebd
00000070: eb45 223e fad0 2bbe 594a 333d 6115 15bd
00000080: fbe2 75bd 2c92 99bd 1010 e43c ed03 243e
00000090: 4ad9 33bd 0b23 22bd 3b60 173c b010 babd
000000a0: d04e 243e f5be 8bbd b726 5abd f464 29be
000000b0: 0879 97bd 2752 af3d 54e4 8b3c 4668 163e
000000c0: 0b1d 593d 8cd5 d4bd f69d c43c bc42 31bd
000000d0: 1596 843d d0a3 0e3e dc00 413d c292 123e
000000e0: e3e9 3cbd 8f4b cf3c f7a2 383e f488 c5bd
000000f0: 938b d6bd e185 d1bb 4284 4a3a 3e90 a8bc
00000100: fa0b d33c 5689 1c3e 98b6 2a3e a99c fbbd
00000110: a4b5 e0bd 9ae8 db3d 1cb9 02be b32f 1abe
00000120: aaca 04be 9a3e 3f3e 7589 c2bc b8e1 39be
00000130: 36ab 203e d572 e13d deb4 373d 04e5 be3d
00000140: 43f0 18be 9212 0d3d 5d41 f3bd faf0 e03d
00000150: 425f 953b e280 373d 15f7 1a3e fe0c d2bd
00000160: 454c c03d fbae 533b f3f9 103e 2ccb 19be
00000170: 3dcc 2ebe bd53 103e b13e 3f3e a9f5 d83d
00000180: 631d ec3c 8774 f33d c405 a83d b43b 53bd
00000190: 7d79 02be 5b3d 34be 670e af3d d01a bc3d
000001a0: d781 dabc bee4 3d3e 73fc 0d3e 4257 33be
000001b0: bfe4 3dbe 3f6f 29be a88c aa3d f3e9 c0bd
000001c0: 9bf5 313e c196 223d beb0 0cbe 16db d73d
000001d0: d05e 01bd 3dc3 3a3e 8df4 f6bd 2769 f1bd
000001e0: 4c9b 00be 1e12 243c 1a97 adbd 7319 aebd
000001f0: 5d55 3b3e 9ea3 013e 709b ecbd 8bce 23be
00000200: 3b4d 373d 56d5 bbba bc43 a23d acce 36bd
00000210: a768 123e aabc ba3d efe2 1dbc 6b5b a23d
00000220: a955 2b3e 559c c53b afb6 6ebd 614c 153e
00000230: c1f9 38be 06ca 0b3e aa42 373e 7bb3 b5bc
00000240: 0e7e 66bd 7ae1 f5bd 41d9 813d abf3 023e
00000250: 8974 043e 377b 803d 1068 093e adf3 fd3d
00000260: e264 b83b 6256 f9bd e20e 9b3d 564e f43d
00000270: ae90 c83d 95ce 3f3e 043f f53c 6962 02be
00000280: dc49 36be f293 a13d f46b c9bd 6f9c a33c
00000290: 7b58 1f3e 365a 98bd cf6c 333e 8976 21bd
000002a0: fa4c 3d3e d486 c73d 490f b9bd e29d 923c
000002b0: 06e9 38bd 3f8b 023e faf3 77bc a508 23be
000002c0: 5f66 b73c 7ae0 c43d 73e9 b2bc 480f 473d
000002d0: 7f4a c8bd 7a9e 143e cdf2 9bbc b988 25bc
000002e0: 34f0 ef3d 67ab 1bbe c10a 9b3c 47e7 50bd
000002f0: 082f 2cbc cf2b 053d 9dfd fc3d 0f29 c1bd
00000300: e057 243e d593 55bd 1d32 03be d7fd 02be
00000310: 2a17 3ebe 1fe2 1bbe 5371 e93c eb01 ff3c
00000320: 85dc 163e 7466 f03d 2723 1f3e 438e 2ebe
00000330: 17e7 023e 02dc 403d 65e7 f9bd 7e94 19be
00000340: 0587 193e 2884 1bbe e321 19bb 3932 0d3e
00000350: 07e6 dfbd 86bc 0cbe 7188 1ebe 23e8 8cbd
00000360: 9bbb e4bd 4fb8 05be e4fb 98bd ac6c 313e
00000370: 380e a4bd 6908 973d 1253 c73d 1a73 d93d
00000380: 1079 82bd ae79 d7bd 768c a7bd d45e 04bb
00000390: 6da2 aabd b679 d3bd 0785 1c3e c75f 2d3e
000003a0: 1cb5 1abe 1bd7 12be 7820 083e 325d 013e
000003b0: 292a be3d 0ae1 ccbd 9f97 343d 7a5a c9bd
000003c0: b55d 1bbe 4a83 d7bd f842 1abd e5e2 01be
000003d0: 4624 e53c cd70 3ebd 294e 5dbd 1a61 443c
000003e0: 0fe1 a13d 2551 0e3d ae5d 323e 971c 15be
000003f0: 86d1 95bc 8b94 93bd e7da 263d 6a7f 84bd
0.008934173 -0.0036850604 0.17347169 -0.02858984 -0.031985283 -0.029199814 0.16820651 -0.18228966
-0.05447554 0.07599682 0.06367032 0.021045728 -0.057858337 0.13082372 0.0031916983 0.074756615
-0.11762316 -0.16371322 0.09970886 0.03474478 -0.18269816 -0.12252397 -0.09565729 -0.15972514
0.15023962 0.022627858 0.10502487 -0.0773073 0.15846984 -0.16778937 0.043772075 -0.03639734
-0.06003092 -0.07498583 0.02783969 0.16017123 -0.043908395 -0.0395842 0.009239252 -0.09085214
0.1604569 -0.068235315 -0.053259578 -0.16542417 -0.07396132 0.08560591 0.017076649 0.14688215
0.053006213 -0.10392293 0.024001103 -0.043276533 0.064739384 0.13929677 0.04711996 0.14313796
-0.04612149 0.025304584 0.18030916 -0.09645262 -0.104758404 -0.0063941334 0.00077253964 -0.020576593
0.025762547 0.15286765 0.16671216 -0.1228574 -0.10972145 0.107377246 -0.12765926 -0.15057258
-0.12967935 0.18676224 -0.023747185 -0.18152511 0.15690312 0.110082306 0.044850223 0.09321025
-0.14935403 0.03444154 -0.118777014 0.10983463 0.0045584748 0.044800647 0.15133317 -0.10256384
0.09389547 0.0032300341 0.14157848 -0.1501891 -0.17070098 0.14094444 0.18676259 0.10593731
0.028822606 0.1188746 0.08204225 -0.05157061 -0.12741657 -0.1760153 0.08547669 0.091848016
-0.02667324 0.1854429 0.13865833 -0.17513755 -0.18544291 -0.16546343 0.08327609 -0.09419622
0.17378847 0.03969455 -0.13739297 0.10539834 -0.03158456 0.1823854 -0.12058363 -0.11787634
-0.12559241 0.010014085 -0.08476086 -0.08500948 0.18294282 0.12660071 -0.11553085 -0.15996759
0.044751387 -0.0014330547 0.079230756 -0.04463069 0.14297734 0.09118016 -0.009636625 0.07927593
0.16731896 0.006030599 -0.05827969 0.14579917 -0.18064024 0.13651285 0.17896524 -0.02218031
-0.05627256 -0.12005897 0.06340266 0.12788264 0.1293508 0.06273501 0.13418603 0.12399993
0.0056272605 -0.12174679 0.07571198 0.11929004 0.097932205 0.18731149 0.029937275 -0.12732853
-0.17801613 0.078895465 -0.098350435 0.019972054 0.15561096 -0.07439081 0.17521976 -0.039419685
0.18486395 0.09742513 -0.090361185 0.01789755 -0.045144103 0.1274843 -0.015133852 -0.15921266
0.022387682 0.09613128 -0.021839833 0.048598558 -0.09779834 0.14513579 -0.019036675 -0.010103398
0.11715737 -0.15202104 0.018926026 -0.051001813 -0.01050926 0.032512482 0.123530604 -0.094316594
0.16049147 -0.052142937 -0.12812085 -0.12792145 -0.18563524 -0.15222977 0.02849642 0.031128844
0.14732559 0.117382914 0.15540753 -0.17046456 0.12783466 0.047084816 -0.12202338 -0.14998052
0.14992912 -0.15187132 -0.0023366145 0.1378869 -0.10932546 -0.13743791 -0.15481736 -0.06880214
-0.111685954 -0.1305859 -0.07469919 0.17326611 -0.080105245 0.07374651 0.09732641 0.10617657
-0.06370747 -0.105212554 -0.08181088 -0.0020198124 -0.083317615 -0.10325949 0.15285121 0.16931067
-0.1510815 -0.14339869 0.13293636 0.12633207 0.09285385 -0.1000386 0.04408991 -0.0983171
-0.15172465 -0.10523088 -0.037661523 -0.1268421 0.027971398 -0.046494294 -0.054029617 0.011986041
0.07904255 0.034745354 0.17418548 -0.14561687 -0.018288385 -0.07206067 0.040736105 -0.06469615

onnx::Conv_13 f4 [16]
00000000: b830 433e c58b 96bd 57a9 c83c f014 0f3c
00000010: 6db1 3a3e 07bb 2f3d a758 19be 72b1 0d3e
00000020: 329a ffbd 292b a9bd fa71 943d bd03 0abe
00000030: 66e7 543d d2d1 b33d 6762 afbd 014f 19be
0.19061553 -0.07350878 0.02449481 0.008733019 0.18231745 0.042902973 -0.14975224 0.13837221
-0.12480582 -0.08260185 0.07248302 -0.13477989 0.05197849 0.087802544 -0.08563691 -0.14971544
